model/keypoint_classifier/keypoint_classifier.tflite (tflite, 6940 bytes, 6 tensors)

sequential/dense/BiasAdd/ReadVariableOp f4 [20]
0	0x3f45c878	0.77259016
1	0x3ed470be	0.41492265
2	0xbffd38c2	-1.9782946
3	0xbf1cda44	-0.61270547
4	0x3fb260c7	1.3935784
5	0xbfbc1810	-1.4694843
6	0xbf944227	-1.1582688
7	0x3ed24f1e	0.41075987
8	0xbc330c2b	-0.010928194
9	0x3e661fa8	0.22473013
10	0xbf0cd13e	-0.5500678
11	0xbeb09f10	-0.34496355
12	0xbf486691	-0.78281504
13	0xbf4a34ba	-0.78986704
14	0x3e3f5072	0.18683031
15	0xbfa6b0a5	-1.3022658
16	0xbf98c9eb	-1.193662
17	0xbdb75787	-0.089522414
18	0xbfb9640e	-1.4483659
19	0xbfead757	-1.8346967

sequential/dense_2/BiasAdd/ReadVariableOp f4 [13]
0	0xbeb4b09b	-0.3529099
1	0xbf94b647	-1.1618127
2	0x3fa6dae5	1.3035551
3	0x3f0ced01	0.5504914
4	0xbf886d86	-1.0658424
5	0x3f83de30	1.0302181
6	0xbf0bb8ab	-0.54578656
7	0xbe090afa	-0.13383093
8	0x3f4f5da1	0.8100224
9	0xbeec7485	-0.46182647
10	0x3f0d9e3f	0.5531959
11	0xbff34ea3	-1.9008373
12	0x3eea0a14	0.45710814

sequential/dense_1/BiasAdd/ReadVariableOp f4 [10]
0	0x3e46029f	0.19336937
1	0x3fd5cf09	1.6703807
2	0x3f01a88d	0.50647813
3	0x3de121a0	0.109927416
4	0x3eab25da	0.33427316
5	0x3fbdc9cc	1.4827209
6	0x3e93dbe3	0.28878698
7	0xbf26c27d	-0.65140516
8	0x3f955a6e	1.1668222
9	0x3eee812e	0.4658293

sequential/dense/MatMul f4 [20, 42]
0	0xbe9b7af2	-0.30367237
1	0xbd2713c8	-0.04079035
2	0x3edbfe28	0.42967343
3	0x3fdbda28	1.7175951
4	0x3e969bd0	0.2941575
5	0x3f38ae30	0.7214079
6	0x3ea5bf87	0.32372686
7	0x3ee13230	0.43983603
8	0x3e235603	0.1595078
9	0x3ea6a195	0.32545152
10	0x3e278533	0.16359405
11	0x3ee3cc4f	0.44491813
12	0x3e12d386	0.14338502
13	0x3e83fe80	0.25780106
14	0x3d908843	0.0705724
15	0x3d98cbbb	0.074607335
16	0xbba22593	-0.004948327
17	0xbdb44002	-0.08801271
18	0x3c8e0795	0.0173376
19	0x3ea6e5ee	0.32597297
20	0x3db211d5	0.086948074
21	0x3e147622	0.14498189
22	0x3d83cfe3	0.064361356
23	0xbe18c02f	-0.14917062
24	0x3d04910a	0.032364883
25	0xbed180b4	-0.40918505
26	0xbe9b53c3	-0.30337343
27	0x3e5ab743	0.21358971
28	0xbc94dcce	-0.018171694
29	0x3cd773dd	0.026300365
30	0x3d1a8569	0.037724886
31	0xbec4c69b	-0.38432774
32	0xbcd3c311	-0.02584985
33	0xbf388d0c	-0.7209022
34	0xbf100b2b	-0.5626704
35	0x3e2027ed	0.1564023
36	0xbe4ae8d9	-0.19815387
37	0x3cdc4522	0.026888434
38	0xbe494f5c	-0.1965918
39	0xbe2680f5	-0.1626013
40	0xbe06c678	-0.13161647
41	0xbe33e983	-0.17569546
42	0xbe9416ef	-0.28923747
43	0xbe5b8914	-0.2143901
44	0x3de13b0a	0.10997589
45	0xbc54df9d	-0.012992767
46	0xbe213798	-0.15743864
47	0x3e881f31	0.26586297
48	0xbef6cf3b	-0.4820498
49	0x3eb97647	0.3622305
50	0xbef10081	-0.47070697
51	0x3f1bf330	0.6091795
52	0xbddfa0e9	-0.10919363
53	0x3efd78a8	0.49506116
54	0xbf159b0d	-0.58439714
55	0x3e48b273	0.19599323
56	0xbf38997c	-0.721092
57	0x3e4289e0	0.18997908
58	0xbf30af4b	-0.69017476
59	0x3e853970	0.26020384
60	0xbe4dcb3c	-0.20097059
61	0x3f3f681c	0.74768233
62	0xbf09b737	-0.5379519
63	0x3eed19c6	0.46308726
64	0xbec12cb7	-0.37729427
65	0x3e2f3161	0.1710868
66	0xbeae5b6d	-0.34054127
67	0x3ec4d22a	0.38441592
68	0xbe1a797c	-0.15085405
69	0x3f3bb1f8	0.73318434
70	0xbef8cad4	-0.48592246
71	0x3f206447	0.6265301
72	0xbebfcc28	-0.37460446
73	0x3e8dbfdb	0.27685437
74	0xbe78e8bc	-0.24307531
75	0x3ea40370	0.32033873
76	0x3d9e9e3f	0.07745027
77	0x3f0c58ee	0.54823196
78	0xbecd4310	-0.40090227
79	0x3f394f61	0.7238675
80	0xbeb8ccdb	-0.36093792
81	0x3f1694e8	0.5882096
82	0xbea577fb	-0.323181
83	0x3e85febf	0.26170918
84	0xbe432eb2	-0.19060782
85	0x3e1d554a	0.15364566
86	0xbf5721f6	-0.84036195
87	0x3f1df329	0.6169916
88	0xbe9120b0	-0.2834525
89	0x3e5b1f3c	0.21398634
90	0xbeba9e4a	-0.3644889
91	0x3e3578e1	0.17721893
92	0xbefdebc8	-0.4959395
93	0x3e1a38c2	0.15060714
94	0x3e09dae9	0.13462414
95	0xbd6562a7	-0.056002285
96	0xbe0350c7	-0.12823783
97	0xbaf88408	-0.0018960247
98	0xbe7e9e98	-0.24865186
99	0x3d425a44	0.047449365
100	0xbea7ae1a	-0.32750016
101	0x3d8b8081	0.068116195
102	0x3e0be9ba	0.13663378
103	0xbe5aabdf	-0.21354626
104	0xbe1d9368	-0.15388262
105	0xbdb181be	-0.086673245
106	0xbe87bb9a	-0.26510316
107	0xbe5e5faa	-0.2171618
108	0xbeafe9f3	-0.34358177
109	0xbe2d02df	-0.16895626
110	0x3e34ceee	0.17657062
111	0xbea07662	-0.3134032
112	0xbda08637	-0.078380994
113	0xbe3f6fa8	-0.18694937
114	0xbe381213	-0.17975645
115	0xbec685d2	-0.38773972
116	0xbec5b607	-0.38615438
117	0xbeaf1438	-0.34195113
118	0x3e36be3f	0.1784601
119	0xbeb9a529	-0.3625882
120	0xbcea2c67	-0.028585626
121	0xbe678bca	-0.22611919
122	0xbdbf9bfd	-0.09355924
123	0xbf1ec33a	-0.6201664
124	0xbe2388ad	-0.15970106
125	0xbf0e08b6	-0.5548204
126	0xbe92a46e	-0.28641075
127	0xbe2f7b10	-0.17136788
128	0x3f9ce2f6	1.2256763
129	0x3ed04813	0.40679988
130	0x3f2e6e65	0.681372
131	0xbced3e30	-0.028960317
132	0x3f153daa	0.58297217
133	0xbe50e27c	-0.20398897
134	0x3edc1aa1	0.42989066
135	0xbec1f999	-0.3788574
136	0xbe921e20	-0.2853861
137	0x3ec5b95e	0.38617986
138	0x3e027eab	0.12743632
139	0x3da85c39	0.08220715
140	0x3e3772fe	0.1791496
141	0xbdededfc	-0.116176575
142	0x3e63af4f	0.22234844
143	0xbe80f2e1	-0.25185302
144	0xbf88cd8e	-1.068773
145	0x3ece2e65	0.4026977
146	0xbdeda6be	-0.11604069
147	0x3c5e4aad	0.013567609
148	0x3bdbdaf5	0.0067094513
149	0xbe98607e	-0.29761118
150	0x3d39f69c	0.0454012
151	0xbef486c3	-0.47759065
152	0xbfe652db	-1.7994035
153	0x3eee2d3d	0.4651889
154	0xbebd9267	-0.3702576
155	0x3bed137c	0.0072349887
156	0xbd79c65b	-0.060980182
157	0xbeaa3d06	-0.33249682
158	0xbd0c74f0	-0.034291208
159	0xbebba697	-0.36650535
160	0xc011a4b8	-2.2756786
161	0x3f0d802d	0.55273706
162	0xbf43e3c3	-0.7651941
163	0x3e05df46	0.13073453
164	0xbe9a6002	-0.30151373
165	0xbde65ffc	-0.11248776
166	0xbe290c2a	-0.16508546
167	0xbe6404f7	-0.22267519
168	0x3de6e458	0.11274022
169	0xbbc59040	-0.006029159
170	0x3f152208	0.5825505
171	0x3f4e8757	0.8067526
172	0x3e9fd2b4	0.3121544
173	0x3e667195	0.22504266
174	0x3eb1ea6e	0.34749168
175	0x3db5dd12	0.088800564
176	0x3eaafa20	0.33393955
177	0x3dd8d99b	0.1058838
178	0x3f0527c8	0.52013826
179	0xbd820c46	-0.06349997
180	0x3f014ea5	0.5051063
181	0xbd4f50df	-0.050614234
182	0x3f1e816b	0.61916226
183	0xbe89e736	-0.26934212
184	0x3f180d46	0.59395254
185	0xbea49a8f	-0.3214917
186	0x3f6f3ef4	0.93455434
187	0xbd9fe861	-0.07807995
188	0x3f6c9f85	0.9243091
189	0xbced9027	-0.028999401
190	0x3f8263b9	1.0186683
191	0xbe5010ae	-0.20318863
192	0x3f8116f7	1.0085133
193	0xbe5b48c4	-0.21414477
194	0xbdab96e6	-0.08378391
195	0xbd3d6d0d	-0.046246577
196	0x3f55e51b	0.8355271
197	0xbcf542fc	-0.029939167
198	0x3fa0d062	1.2563593
199	0xbe29c616	-0.1657947
200	0x3fc11228	1.5083666
201	0xbe742a4c	-0.2384426
202	0xbf2fbf46	-0.68651235
203	0x3d047265	0.032335658
204	0xbecbfa92	-0.39839607
205	0x3d84a45b	0.06476661
206	0xbefcf9de	-0.49409384
207	0x3d1f3cab	0.038876217
208	0xbf14eca4	-0.58173585
209	0x3d9984a2	0.07496001
210	0xbc1e0da0	-0.009646803
211	0xbe3c41fe	-0.18384549
212	0xbeaee140	-0.34156227
213	0xbfde0acd	-1.7347046
214	0xbe598db8	-0.21245468
215	0xbf4f5e1a	-0.8100296
216	0xbea4d8ea	-0.32196742
217	0xbefb46d4	-0.49077475
218	0xbeba0727	-0.36333582
219	0xbeaee58c	-0.34159505
220	0xbe89dc63	-0.26925954
221	0xbdc175a5	-0.09446267
222	0xbe58beae	-0.21166489
223	0xbe49eae4	-0.1971851
224	0xbdf8ecf5	-0.12154571
225	0xbda870ae	-0.08224617
226	0xbd8a2a63	-0.06746366
227	0xbd26324b	-0.040575307
228	0xbe67d246	-0.22638807
229	0xbd2268a8	-0.03965059
230	0xbe786c62	-0.24260095
231	0xbd7a1b4e	-0.061061196
232	0x3da847b4	0.08216801
233	0x3cd7d076	0.02634452
234	0x3e4e1469	0.20124973
235	0x3ce9cf50	0.028541237
236	0xbe93bb5f	-0.2885389
237	0x3d356c75	0.044292886
238	0xbe7e77fe	-0.24850461
239	0xbc0e00bb	-0.008667166
240	0x3e1d7dcd	0.1538002
241	0x3de54272	0.11194314
242	0x3e923f02	0.28563696
243	0x3dd62d01	0.104578026
244	0xbe2d505a	-0.16925183
245	0x3d7fd0b3	0.06245489
246	0xbea61cc6	-0.32443827
247	0x3da2941c	0.07938406
248	0x3d8de8b6	0.06929152
249	0x3e4c2a0a	0.19937912
250	0x3e73ef1b	0.2382168
251	0x3e5acf60	0.2136817
252	0xbe3033a2	-0.17207196
253	0x3e2f51ce	0.1712105
254	0xbee12f33	-0.43981323
255	0xbf6d6259	-0.9272819

sequential/dense_1/MatMul f4 [10, 20]
0	0x3de42e0a	0.11141594
1	0xbe09f1f6	-0.13471207
2	0x3fa6d243	1.3032917
3	0x3d03e703	0.03220273
4	0xbeab5a2a	-0.33467227
5	0xbd945f6c	-0.07244763
6	0xbe0a4e1d	-0.1350636
7	0xbf939e44	-1.1532674
8	0x3f020474	0.50788045
9	0xbe846aa3	-0.25862607
10	0x3f420309	0.7578588
11	0xbd4c9c3f	-0.049953695
12	0xbf00e079	-0.5034252
13	0x3d9b6b76	0.07588856
14	0xbef8b53b	-0.48575768
15	0x3ca019bd	0.019543523
16	0x3f448f4f	0.7678117
17	0xbf4bf3bf	-0.796688
18	0x3fcb40d7	1.5879163
19	0x3f2521b7	0.6450457
20	0xbcb488ef	-0.022037951
21	0xc04c4f6c	-3.1923475
22	0xbd270c4b	-0.040783208
23	0x3c43f035	0.011959125
24	0x3fc44e5a	1.5336411
25	0x3f11379b	0.5672547
26	0x3f45cc98	0.7726531
27	0xbfa7196d	-1.3054634
28	0x3fc1fd25	1.5155379
29	0x3e0625c9	0.13100351
30	0x3fc479ec	1.5349708
31	0x3aa3a8c7	0.0012486213
32	0xbe62f105	-0.22162254
33	0x3ec1a5a4	0.37821686
34	0x3e36ddba	0.1785802
35	0xbe431e6d	-0.19054575
36	0x3e5eedc5	0.2177039
37	0xbf8f43ab	-1.1192526
38	0xbdb569ea	-0.08858092
39	0x3f683397	0.9070372
40	0x3ff3fd23	1.9061626
41	0x3ef1868d	0.47172967
42	0xbd781fed	-0.06057732
43	0x3fc86348	1.5655298
44	0x3fb72460	1.4307976
45	0xbf21e7bd	-0.6324423
46	0xbf1b6709	-0.60704094
47	0x3ed5184c	0.416201
48	0x3e86700b	0.26257357
49	0x3ea27018	0.31726146
50	0x3ea365ce	0.31913608
51	0xbefafa92	-0.49019295
52	0x3f4ebfbb	0.8076131
53	0x3ce037dd	0.027370388
54	0x3e96cd6c	0.294536
55	0x3f436086	0.7631916
56	0xbf1076c3	-0.56431216
57	0xbcbad5b5	-0.022806982
58	0x3e20143f	0.15632723
59	0xbf1baab2	-0.60807335
60	0x3dd927a7	0.10603266
61	0x3df8555f	0.12125658
62	0x3ecb6d24	0.39731705
63	0xbabbc495	-0.0014325554
64	0xbf56a876	-0.838508
65	0xbebfdf09	-0.3747485
66	0x3e7d516d	0.24738093
67	0x3eebc0ef	0.46045634
68	0x3db0447b	0.086068116
69	0x3dd40157	0.10351818
70	0xbe88fc32	-0.2675491
71	0x3fe7ae86	1.8100135
72	0xbdbe2633	-0.0928463
73	0xbe87a637	-0.26494
74	0x3ded13fb	0.115760766
75	0x3d12481c	0.0357133
76	0x3fdad539	1.709632
77	0x3e38580e	0.1800234
78	0x3fc4efe4	1.5385709
79	0x3f243fda	0.6415993
80	0xbe7b5567	-0.24544297
81	0x3f2bde99	0.6713653
82	0x3e9c6b46	0.30550593
83	0x3f627a74	0.884681
84	0xbfc67d57	-1.5507001
85	0x400b5526	2.177072
86	0x3ffe1521	1.9850198
87	0xbf618736	-0.8809694
88	0x3e923f02	0.28563696
89	0x3f2aac7a	0.6666943
90	0x3e8b907e	0.27258676
91	0x3ecf7fb3	0.40527114
92	0x3eabe42b	0.33572516
93	0x3e2c13a7	0.16804372
94	0x3f05b06c	0.52222323
95	0x3f6191cf	0.8811311
96	0x3f23a1ed	0.63918954
97	0xbe1d0554	-0.15334064
98	0x3ea57ca3	0.32321653
99	0xbe0b300e	-0.1359255
100	0x3dddc258	0.10828084
101	0x3f4b320c	0.7937324
102	0x3ec26e38	0.37974715
103	0x3cc22034	0.023696996
104	0x3f65b263	0.8972532
105	0xbed97678	-0.42473197
106	0x3e81fc8f	0.25388
107	0x3de9b503	0.11411478
108	0x3f07d36f	0.53057
109	0x3eb85e07	0.36009237
110	0x3ec8cc3a	0.39218313
111	0x3ecef73f	0.4042301
112	0xbdfeec46	-0.12447409
113	0x3da8fc83	0.08251288
114	0x3ec642a7	0.38722727
115	0xbec19f7c	-0.3781699
116	0xbd65b785	-0.05608322
117	0x3edc1f60	0.42992687
118	0x3edd847f	0.4326515
119	0xbee17fd3	-0.44042835
120	0x3eb5dce8	0.355201
121	0x3e25bbc5	0.1618491
122	0x3ebbeea9	0.3670552
123	0x3d59061b	0.05298434
124	0x3f3febf9	0.7496944
125	0x3c82a907	0.01594974
126	0xbdf5e1f6	-0.12005989
127	0xc00199dc	-2.0250158
128	0x3f4a329f	0.7898349
129	0xc001271e	-2.0180125
130	0x3f7ce258	0.98782873
131	0xbe642853	-0.22281007
132	0x3ed0d9aa	0.40791065
133	0x3ec7675f	0.38946053
134	0xbff15b81	-1.885605
135	0x3e8a5dc5	0.27024665
136	0xbe4b82df	-0.19874142
137	0xbf03f04f	-0.51538557
138	0x3eb9eb02	0.3631211
139	0x40045230	2.0675163
140	0x3f217a90	0.6307764
141	0x3e63edff	0.22258757
142	0x3f58bec5	0.8466609
143	0x3e9017f5	0.28143278
144	0x3e7a0b29	0.2441832
145	0x3e9ff670	0.31242704
146	0xbd8118ff	-0.06303596
147	0x3f9663ab	1.1749166
148	0x3e957323	0.29189405
149	0x3f8de009	1.1083995
150	0x3eb15da9	0.3464177
151	0x3e82e700	0.25566864
152	0x3fa6af0d	1.3022171
153	0x3d0b892f	0.034066375
154	0x3f65564b	0.895848
155	0x3f12b03b	0.57300156
156	0x3f73a1fa	0.9516903
157	0xbe9267e9	-0.28594902
158	0x3eabd091	0.3355756
159	0x3f8f3ae6	1.1189849
160	0x3e5a70ee	0.21332142
161	0x3dd5ba57	0.10435932
162	0x3f268ebd	0.6506155
163	0x3f4d9834	0.8031037
164	0xbe513e1a	-0.20433846
165	0x3f645655	0.8919423
166	0x3f071e04	0.52780175
167	0xbee5279b	-0.4475678
168	0xbf448b7e	-0.7677535
169	0xbec0dfa3	-0.3767062
170	0xbf66a2a4	-0.9009192
171	0x3dfee570	0.124461055
172	0x3f74bc91	0.9560023
173	0x3f4a2043	0.7895548
174	0xbe97428d	-0.29542962
175	0x3f2209c0	0.6329613
176	0x3e923463	0.28555593
177	0xbfd04405	-1.6270758
178	0x3ed8ba33	0.4232956
179	0xbdbc8749	-0.09205491
180	0xbe5a0ca1	-0.2129388
181	0x3e9ff76f	0.31243464
182	0xbf917c4b	-1.1366056
183	0x3dea4f76	0.11440937
184	0x3f3816aa	0.7190958
185	0x3f5aa2d1	0.8540469
186	0x3e09eb7e	0.1346874
187	0x3f465391	0.7747126
188	0xbd03924c	-0.03212194
189	0x3f220c41	0.6329995
190	0x3bcaffd1	0.0061950465
191	0xbec94a6e	-0.39314598
192	0x3edf5d92	0.43626076
193	0xc05553db	-3.3332431
194	0x3f04e869	0.5191713
195	0x3e933cef	0.28757426
196	0x3e56dfa7	0.20983754
197	0x3fac1cef	1.344633
198	0xbdabd5f1	-0.083904155
199	0x3f7e3d31	0.9931212

sequential/dense_2/MatMul f4 [13, 10]
0	0xbd6aca10	-0.057321608
1	0x3e81ea2a	0.25373966
2	0xbe125e12	-0.14293697
3	0xbeb93218	-0.3617103
4	0xbfab1452	-1.3365576
5	0x3e86ba7b	0.26314148
6	0x3f42ffae	0.76171386
7	0x3f1fe5e7	0.6246018
8	0xbdd87981	-0.1057005
9	0xbe07d902	-0.13266376
10	0x3f12bc02	0.5731813
11	0x3f08608c	0.5327232
12	0xbff5bf70	-1.9199047
13	0x3e5af2df	0.2138171
14	0x3e8b7524	0.2723781
15	0xbe807d3e	-0.25095552
16	0x3ed31c5a	0.41232568
17	0xbed3af7b	-0.41344818
18	0xbe13a63f	-0.14418887
19	0x3e798b2c	0.24369496
20	0xbf30520c	-0.68875194
21	0x3f6a3dc4	0.91500497
22	0xbf3faec9	-0.74876076
23	0xbf43d4c4	-0.7649653
24	0xbf73cbf1	-0.95233065
25	0x3f7b0043	0.98047274
26	0x3dc85d67	0.0978344
27	0xc037891a	-2.867743
28	0xbda78ecd	-0.08181534
29	0xbe9676d2	-0.29387528
30	0xbde5fa86	-0.11229424
31	0xbf2beadc	-0.6715524
32	0xbf9e81de	-1.2383382
33	0x3ee2ab09	0.44271114
34	0x3e77ec2b	0.24211185
35	0xbe02a40e	-0.12757894
36	0xbe2e3ef3	-0.170162
37	0x3d52db3a	0.051478602
38	0x3f52a3a0	0.8228092
39	0x3e5b42fb	0.2141227
40	0x3ebb0264	0.3652526
41	0xbf0a998b	-0.5414054
42	0xbf388658	-0.7207999
43	0x3effc3fb	0.4995421
44	0xbe99763a	-0.29973012
45	0xbf988059	-1.1914169
46	0x3f32ddb1	0.69869524
47	0x3e94e075	0.29077497
48	0x3f0f012f	0.5586118
49	0x3f2eb640	0.6824684
50	0x3f6c91f6	0.9241022
51	0x3ec4a0e3	0.38403997
52	0xbf92fa23	-1.1482586
53	0xbe7002a5	-0.23438509
54	0xbedb1a43	-0.42793474
55	0x3f054f86	0.5207447
56	0x3e849375	0.2589375
57	0xbf887ca7	-1.0663041
58	0xbe69ee06	-0.22844705
59	0xbf754f62	-0.95824254
60	0x3f1c117a	0.6096417
61	0xbf5cd42b	-0.8626124
62	0x3f0ac188	0.54201555
63	0xbdc2ffc0	-0.09521437
64	0xbf0ff324	-0.5623038
65	0xbe2423b4	-0.16029245
66	0x3e81357a	0.25236112
67	0xbe04cf2e	-0.12969658
68	0x3f032362	0.51225865
69	0xbd04cb39	-0.03242037
70	0xbf6f8364	-0.9355986
71	0xbec62f30	-0.38707876
72	0xbca02e91	-0.019553455
73	0xbfea3132	-1.8296263
74	0x3f51434e	0.81743324
75	0x3f0424bd	0.5161856
76	0xbfc104d8	-1.5079603
77	0x3e89ba0a	0.2689975
78	0x3e892dd8	0.26792789
79	0xbf1d5ed3	-0.61472815
80	0xc010a86e	-2.2602801
81	0xbf4684b5	-0.77546245
82	0xbb62029d	-0.003448642
83	0xbf831e0b	-1.0243543
84	0x3f4d6a20	0.8024006
85	0x3bdac51b	0.006676329
86	0xbf3bb4c1	-0.73322684
87	0xbf805899	-1.0027038
88	0x3f3b54b3	0.73176116
89	0xbe872025	-0.26391712
90	0xbfa9ed9f	-1.3275641
91	0x3e97b0cb	0.2962707
92	0x3f4c3c5e	0.79779613
93	0xc002b9d1	-2.0425913
94	0xbdd5e764	-0.10444525
95	0xbe8212cd	-0.2540497
96	0x3f47cfe8	0.78051615
97	0xbe19a7ae	-0.15005371
98	0xbee8d77a	-0.45476896
99	0xbf0c845f	-0.5488948
100	0xbf064139	-0.5244327
101	0xbf6d7321	-0.927538
102	0x3efb41ae	0.49073547
103	0x3f06d5a5	0.52669746
104	0x3dc00c95	0.093774
105	0x3ed11316	0.40834874
106	0xbfa8ef7d	-1.3198086
107	0x3f233678	0.6375499
108	0xbe30b37c	-0.17255968
109	0xbf6498fe	-0.8929595
110	0xbf21a6fa	-0.6314541
111	0xbea66817	-0.3250129
112	0xbf27789e	-0.6541842
113	0x3f5ef14d	0.87086946
114	0x3e45e64b	0.19326131
115	0x3f212fe7	0.6296372
116	0xbc1a7f7e	-0.009429811
117	0x3e0d4145	0.1379443
118	0xbf1d27fd	-0.6138914
119	0x3f227859	0.63464886
120	0xbf3f0857	-0.746221
121	0xbf454255	-0.7705434
122	0x3f478789	0.77941185
123	0xbf94270f	-1.157442
124	0xbd33ec28	-0.043926388
125	0x3de6e3dc	0.112739295
126	0xbe5157f5	-0.20443709
127	0x3d934f3e	0.071928486
128	0xbf5fd00a	-0.8742682
129	0x3f669b68	0.9008088
