model/point_history_classifier/classifier1.tflite (tflite, 79736 bytes, 6 tensors)

sequential/dense_2/MatMul f4 [3, 10]
0	0x3fc9bb03	1.5760196
1	0xbf4e7ba6	-0.8065742
2	0xbf593a66	-0.84854734
3	0x3f9268d0	1.1438236
4	0xbfa7c36a	-1.3106511
5	0xbfb249f5	-1.392882
6	0xbfde9749	-1.7389919
7	0xbf8f7dd7	-1.1210278
8	0xbf42af66	-0.76048887
9	0xbfbe0248	-1.4844446
10	0xbe81f5c5	-0.2538282
11	0xbf830dd4	-1.0238595
12	0x3fbffc02	1.4998782
13	0xbf3143e6	-0.6924423
14	0xbde82c88	-0.11336619
15	0xbf5d0c72	-0.86347115
16	0x3f3b2889	0.73108727
17	0xbfa2d4f8	-1.2721243
18	0xbfbfc7a2	-1.4982798
19	0x3ef8c36c	0.48586595
20	0xbeeb8e29	-0.46006897
21	0x3fb0e205	1.3818976
22	0xbf7f4d8e	-0.99727714
23	0xbf8005d5	-1.000178
24	0x3f80d933	1.0066284
25	0x3f3b8886	0.73255193
26	0x3e9294d0	0.2862916
27	0x3f7ad1b1	0.97976214
28	0x3f008625	0.5020469
29	0xbe8dc879	-0.2769201

sequential/dense_1/MatMul f4 [10, 24]
0	0xbe5209bb	-0.20511524
1	0xbf5463f7	-0.82965034
2	0x3e76c4c5	0.24098499
3	0xbeaee179	-0.34156397
4	0xbf3b573f	-0.7318
5	0x3f83d8a7	1.0300492
6	0x3f221c0f	0.63324064
7	0xbe3d2877	-0.18472467
8	0x3f8f7699	1.1208068
9	0xbf8bd7e8	-1.0925264
10	0xbdc1c873	-0.09462061
11	0x3cb382f2	0.021913026
12	0xbfc394b2	-1.5279753
13	0xbea7a02b	-0.32739386
14	0xbf7ce149	-0.9878126
15	0xbece85f7	-0.40336582
16	0xbf38b0cc	-0.7214477
17	0xbfa324e2	-1.2745631
18	0x3e5112c3	0.20417313
19	0x3eb57d1c	0.35447013
20	0x3e2c4d00	0.16826248
21	0x3f9b7539	1.2145149
22	0x3e24a08d	0.1607687
23	0xbd875943	-0.06608822
24	0x3ec6e27e	0.38844675
25	0x3efdb060	0.49548626
26	0x3e8a1095	0.26965776
27	0x3e9813e5	0.29702678
28	0x3f0116d1	0.5042544
29	0xbf0b9724	-0.545275
30	0x3f3e70d1	0.74390894
31	0xbecb4d8b	-0.39707598
32	0xbe598d63	-0.21245341
33	0x3e6c6f58	0.2308935
34	0x3e6d3af1	0.23167016
35	0xbe2b87e7	-0.16751061
36	0x3e18bc03	0.14915471
37	0xbe838b48	-0.256922
38	0x3f4f4870	0.80969906
39	0x3f35be30	0.7099333
40	0x3f317389	0.6931692
41	0x3e674574	0.22585088
42	0x3e76787f	0.24069403
43	0xbec6271c	-0.38701713
44	0x3e491c2d	0.19639654
45	0xbf208113	-0.6269695
46	0x3e1ff311	0.15620066
47	0xbcf96735	-0.03044472
48	0xbd050f58	-0.032485336
49	0xbf9f6217	-1.245181
50	0x3eb463cf	0.35232398
51	0xbf5ab0c3	-0.85425967
52	0xbfa0b9aa	-1.255666
53	0xbf39f1c5	-0.72634536
54	0xbfc440e2	-1.5332301
55	0xbe9887b4	-0.29791033
56	0xbf22cd2f	-0.63594335
57	0x3f9336da	1.1501114
58	0xbe5168c2	-0.20450118
59	0x3ebbc273	0.3667179
60	0x3ed166cd	0.40898743
61	0x3e2a4a37	0.16629873
62	0xbf9d6646	-1.2296836
63	0xbed6c1f3	-0.41944847
64	0xbf1e242b	-0.6177394
65	0x3e36fbb8	0.1786946
66	0xbdbaf88f	-0.0912944
67	0x3eb0fdcd	0.34568635
68	0xbe73af09	-0.2379724
69	0xbf5167d9	-0.81799084
70	0xbe99ea44	-0.30061543
71	0xbe98f44b	-0.2987388
72	0x3e0ba7d0	0.13638234
73	0xbf5f3750	-0.87193775
74	0x3e455c8a	0.19273582
75	0xbe667913	-0.22507124
76	0xbf5199a5	-0.8187507
77	0x3fa95d38	1.3231573
78	0x3f147a9b	0.5799958
79	0xbe8c2525	-0.2737209
80	0x3f410ada	0.75407183
81	0xbface757	-1.3508099
82	0x3e9e67e4	0.30938637
83	0x3eb40356	0.35158795
84	0xbfb8a597	-1.4425534
85	0x3cf025a2	0.02931482
86	0xbee5a7cc	-0.4485458
87	0xbe680549	-0.22658266
88	0xbf3e15c7	-0.7425198
89	0xbfa7b369	-1.3101627
90	0xbec79e6f	-0.38988063
91	0x3e424009	0.1896974
92	0xbe261206	-0.16217813
93	0x3f787e5e	0.9706782
94	0xbea4780d	-0.3212284
95	0xbdf1d5b8	-0.11808342
96	0xbe3fe618	-0.18740118
97	0x3f206bae	0.62664306
98	0xbd40695f	-0.04697549
99	0x3f1cc4c3	0.61237735
100	0x3f21e85b	0.6324517
101	0xbf697820	-0.9119892
102	0x3e8f4b87	0.2798731
103	0xbed27d06	-0.4111101
104	0xbf60007f	-0.87500757
105	0x3f6dd3f0	0.92901516
106	0xbe33897e	-0.17532918
107	0x3e058b40	0.13041401
108	0x3f82e520	1.0226173
109	0xbe58cd8c	-0.2117216
110	0x3f5b71fa	0.8572079
111	0x3f5da1a1	0.8657475
112	0x3ebe88bc	0.37213695
113	0x3eba447a	0.36380368
114	0x3d962660	0.07331538
115	0x3ece0c0f	0.40243575
116	0xbdce1fe9	-0.1006468
117	0xbf19b3e6	-0.6004013
118	0x3e803948	0.25043702
119	0xbe93be63	-0.2885619
120	0xbe62d821	-0.22152759
121	0x3f4510a7	0.76978534
122	0xbe150969	-0.14554371
123	0x3f58cead	0.8469036
124	0x3f777e8b	0.96677464
125	0xbeb5f81d	-0.35540858
126	0x3f259f2c	0.64696
127	0xbe85f325	-0.26162067
128	0xbef38402	-0.4756165
129	0x3f3580c9	0.70899636
130	0x3dee0ffe	0.11624144
131	0xbe58b875	-0.21164115
132	0x3e4c0fe8	0.19927943
133	0x3c2b91e2	0.010471793
134	0x3f624a75	0.8839486
135	0x3f43fc80	0.7655716
136	0x3f35f18f	0.71071714
137	0x3f4ad494	0.7923062
138	0xbe90c213	-0.28273067
139	0xbe348717	-0.17629658
140	0xbeb77ebe	-0.35838884
141	0xbf26a439	-0.65094334
142	0x3ea3b8fc	0.3197707
143	0x3e0398be	0.12851235
144	0xbea2b6e4	-0.3178016
145	0x3eea1fac	0.4572729
146	0x3ec5aaac	0.38606775
147	0xbe4eb966	-0.20187911
148	0x3da5b9f3	0.080921076
149	0xbf4bb510	-0.79573154
150	0xbf846892	-1.0344412
151	0x3e2cd4eb	0.16878097
152	0xbf39275a	-0.7232567
153	0x3f53e65c	0.82773376
154	0x3d36f7d0	0.044669926
155	0x3eb890dd	0.36048022
156	0x3f1958a7	0.599009
157	0x3eac1a69	0.336139
158	0xbe8c85c0	-0.27445793
159	0xbcbe04ba	-0.023195613
160	0x3e1ca996	0.15299067
161	0x3f1d6419	0.6148086
162	0x3e7714fa	0.24129096
163	0x3e9ac83b	0.3023089
164	0x3e5b37ae	0.21407959
165	0xbf4bd636	-0.79623735
166	0xbe024a76	-0.12723717
167	0xbd4bc26f	-0.049745973
168	0x3ecba255	0.39772287
169	0x3eb629a3	0.3557864
170	0x3e629ac6	0.22129354
171	0x3f6f7484	0.93537164
172	0x3e606bc0	0.21916103
173	0xbec60048	-0.3867209
174	0x3f252cae	0.645213
175	0x3ec8ffe1	0.3925772
176	0xbf3a119a	-0.7268311
177	0x3dfcca1c	0.12343237
178	0xbca6f3d6	-0.020379942
179	0x3e5381fb	0.20655052
180	0x3efbe9fb	0.4920195
181	0x3e80a7be	0.25127977
182	0x3eb04158	0.34424853
183	0x3f535078	0.8254466
184	0x3edc08ac	0.42975366
185	0x3f2b860f	0.6700143
186	0x3ecb838a	0.39748794
187	0xbea8da8b	-0.32979235
188	0x3e6b67fa	0.22988883
189	0xbf35e99b	-0.7105958
190	0x3dd03e13	0.1016809
191	0x3e0cad01	0.13737871
192	0xbe9a73cd	-0.30166474
193	0x3eaf91d2	0.3429094
194	0x3e65e9c7	0.2245246
195	0x3efe3131	0.49646905
196	0x3f22094d	0.6329544
197	0xbf193345	-0.59843856
198	0x3f8c0c38	1.0941229
199	0xbeb3cd47	-0.35117552
200	0xbebaaf32	-0.36461788
201	0x3d9f828f	0.07788574
202	0xbe7ef88d	-0.24899502
203	0x3e93946b	0.2882417
204	0x3f1c57a0	0.61071205
205	0xbe6e3cff	-0.23265456
206	0x3e9f5af0	0.31124067
207	0x3f7983e5	0.9746688
208	0x3f7695f5	0.96322566
209	0x3ec6b77a	0.38811857
210	0xbe617bd3	-0.22019891
211	0x3eb6251b	0.35575184
212	0xbdafadee	-0.08578096
213	0x3d40faf2	0.04711432
214	0x3e4b1a66	0.19834289
215	0x3d9ee93f	0.07759332
216	0xbea95016	-0.33068913
217	0xbed02fa8	-0.4066136
218	0x3ea79edb	0.32738385
219	0xbf5890ec	-0.84596133
220	0xbebfbd85	-0.3744928
221	0xbf45e17a	-0.77297175
222	0xbf858aba	-1.0432961
223	0xbec43805	-0.3832399
224	0xbf513615	-0.8172315
225	0x3db46fd7	0.08810394
226	0xbe163494	-0.14668494
227	0x3e823f03	0.254387
228	0x3ece7958	0.40326953
229	0x3de66db7	0.11251395
230	0xbf3acc84	-0.72968316
231	0xbe139f42	-0.14416221
232	0xbe86ec12	-0.26351982
233	0x3f88e254	1.069407
234	0xbce5aa04	-0.028035171
235	0x3c352df7	0.011058322
236	0x3ea95db0	0.3307929
237	0xbf3d7548	-0.7400708
238	0xbeb04561	-0.34427932
239	0x3cc1f8ed	0.023678267

sequential/dense/BiasAdd/ReadVariableOp f4 [24]
0	0xbbc4c6e7	-0.0060051563
1	0xbbefd819	-0.007319462
2	0xbc03e2a9	-0.008049645
3	0xbc272341	-0.010201276
4	0xbbf113bb	-0.0073570884
5	0xbbf387e3	-0.0074319704
6	0xbc6915a1	-0.014226348
7	0xbbc4c22d	-0.006004593
8	0xbbe1958a	-0.0068842815
9	0x3daebbdc	0.08531925
10	0xbc0a5297	-0.0084425425
11	0xbbbd4536	-0.005776073
12	0x3d911f54	0.070860535
13	0xbbc22a6a	-0.0059254663
14	0xbc00206c	-0.00782023
15	0xbc240e1e	-0.010013131
16	0xbc204b21	-0.009783537
17	0x3d6141b2	0.054994293
18	0xbbe5b94e	-0.0070106154
19	0xbbc4bc61	-0.006003902
20	0xbbc4c238	-0.006004598
21	0xbba0c6c7	-0.0049065086
22	0xbbc4c517	-0.0060049403
23	0xbb8e39fd	-0.004340409

sequential/dense_2/BiasAdd/ReadVariableOp f4 [3]
0	0x3ec926d3	0.39287433
1	0x3ef2fcf2	0.47458607
2	0xbf0dd178	-0.5539775

sequential/dense_1/BiasAdd/ReadVariableOp f4 [10]
0	0x3f3af4c3	0.73029727
1	0xbd387069	-0.045029078
2	0x3f15ede1	0.585661
3	0x3f29eb33	0.6637451
4	0x3e7d823c	0.24756712
5	0x3dff10e4	0.124543935
6	0x3e9a2222	0.30104166
7	0xbda7c139	-0.08191151
8	0xbd9c5a7a	-0.076344445
9	0x3e934e45	0.28770652

sequential/dense/MatMul i1 [24, 3180] scale=0.010265158 zero_point=0
0	0xff	-0.010265158
1	0xff	-0.010265158
2	0x03	0.030795474
3	0x03	0.030795474
4	0x02	0.020530315
5	0xfe	-0.020530315
6	0x03	0.030795474
7	0x03	0.030795474
8	0xfd	-0.030795474
9	0x02	0.020530315
10	0x03	0.030795474
11	0xfd	-0.030795474
12	0x00	0.0
13	0x02	0.020530315
14	0xfd	-0.030795474
15	0x02	0.020530315
16	0x02	0.020530315
17	0xff	-0.010265158
18	0xff	-0.010265158
19	0xfc	-0.04106063
20	0xfe	-0.020530315
21	0x03	0.030795474
22	0xfe	-0.020530315
23	0x04	0.04106063
24	0xfd	-0.030795474
25	0x04	0.04106063
26	0xfc	-0.04106063
27	0x02	0.020530315
28	0x02	0.020530315
29	0xff	-0.010265158
30	0x01	0.010265158
31	0xfd	-0.030795474
32	0xff	-0.010265158
33	0x03	0.030795474
34	0x01	0.010265158
35	0xfe	-0.020530315
36	0xff	-0.010265158
37	0x03	0.030795474
38	0xfc	-0.04106063
39	0xfe	-0.020530315
40	0xfe	-0.020530315
41	0x03	0.030795474
42	0x03	0.030795474
43	0x01	0.010265158
44	0x02	0.020530315
45	0xfc	-0.04106063
46	0xfc	-0.04106063
47	0x02	0.020530315
48	0x03	0.030795474
49	0xfd	-0.030795474
50	0x02	0.020530315
51	0xff	-0.010265158
52	0xfc	-0.04106063
53	0x00	0.0
54	0x03	0.030795474
55	0x03	0.030795474
56	0xff	-0.010265158
57	0xfe	-0.020530315
58	0xff	-0.010265158
59	0xfd	-0.030795474
60	0xfc	-0.04106063
61	0xfd	-0.030795474
62	0x01	0.010265158
63	0xfd	-0.030795474
64	0x02	0.020530315
65	0x01	0.010265158
66	0x04	0.04106063
67	0x01	0.010265158
68	0xfc	-0.04106063
69	0x02	0.020530315
70	0xfc	-0.04106063
71	0x01	0.010265158
72	0x00	0.0
73	0x01	0.010265158
74	0x04	0.04106063
75	0x01	0.010265158
76	0xff	-0.010265158
77	0x00	0.0
78	0x02	0.020530315
79	0xff	-0.010265158
80	0x03	0.030795474
81	0xff	-0.010265158
82	0x04	0.04106063
83	0x00	0.0
84	0x00	0.0
85	0xfc	-0.04106063
86	0x00	0.0
87	0xfc	-0.04106063
88	0x00	0.0
89	0xfc	-0.04106063
90	0x00	0.0
91	0x00	0.0
92	0x03	0.030795474
93	0xfd	-0.030795474
94	0x02	0.020530315
95	0x04	0.04106063
96	0x00	0.0
97	0x03	0.030795474
98	0x00	0.0
99	0x04	0.04106063
100	0xfe	-0.020530315
101	0x01	0.010265158
102	0xfd	-0.030795474
103	0x01	0.010265158
104	0x00	0.0
105	0x01	0.010265158
106	0x04	0.04106063
107	0xfe	-0.020530315
108	0x03	0.030795474
109	0x03	0.030795474
110	0x01	0.010265158
111	0x03	0.030795474
112	0x01	0.010265158
113	0xfc	-0.04106063
114	0xfc	-0.04106063
115	0xfd	-0.030795474
116	0x01	0.010265158
117	0x04	0.04106063
118	0xfe	-0.020530315
119	0xfd	-0.030795474
120	0xff	-0.010265158
121	0xfc	-0.04106063
122	0xfe	-0.020530315
123	0xfc	-0.04106063
124	0xfe	-0.020530315
125	0x03	0.030795474
126	0xfc	-0.04106063
127	0x00	0.0
128	0xfc	-0.04106063
129	0x03	0.030795474
130	0x00	0.0
131	0xff	-0.010265158
132	0xfd	-0.030795474
133	0x01	0.010265158
134	0xfd	-0.030795474
135	0xfe	-0.020530315
136	0xfe	-0.020530315
137	0xfe	-0.020530315
138	0x04	0.04106063
139	0x00	0.0
140	0x01	0.010265158
141	0x04	0.04106063
142	0xfd	-0.030795474
143	0xfe	-0.020530315
144	0xfc	-0.04106063
145	0x01	0.010265158
146	0xfd	-0.030795474
147	0xff	-0.010265158
148	0x01	0.010265158
149	0x01	0.010265158
150	0xfc	-0.04106063
151	0x03	0.030795474
152	0x00	0.0
153	0x02	0.020530315
154	0xfc	-0.04106063
155	0x01	0.010265158
156	0x01	0.010265158
157	0xfe	-0.020530315
158	0xfe	-0.020530315
159	0xff	-0.010265158
160	0xff	-0.010265158
161	0xff	-0.010265158
162	0x03	0.030795474
163	0x00	0.0
164	0x02	0.020530315
165	0xfe	-0.020530315
166	0x00	0.0
167	0x03	0.030795474
168	0xfd	-0.030795474
169	0x03	0.030795474
170	0xff	-0.010265158
171	0xff	-0.010265158
172	0x04	0.04106063
173	0xfe	-0.020530315
174	0x01	0.010265158
175	0xff	-0.010265158
176	0xfd	-0.030795474
177	0x04	0.04106063
178	0x01	0.010265158
179	0x00	0.0
180	0xfe	-0.020530315
181	0x02	0.020530315
182	0xfd	-0.030795474
183	0xfc	-0.04106063
184	0x01	0.010265158
185	0xfe	-0.020530315
186	0xfc	-0.04106063
187	0x03	0.030795474
188	0x02	0.020530315
189	0x04	0.04106063
190	0xff	-0.010265158
191	0xff	-0.010265158
192	0x03	0.030795474
193	0x00	0.0
194	0x01	0.010265158
195	0xfe	-0.020530315
196	0xfe	-0.020530315
197	0x03	0.030795474
198	0xfd	-0.030795474
199	0xfc	-0.04106063
200	0xfe	-0.020530315
201	0x03	0.030795474
202	0xfd	-0.030795474
203	0xfd	-0.030795474
204	0x04	0.04106063
205	0x04	0.04106063
206	0xfe	-0.020530315
207	0xff	-0.010265158
208	0x01	0.010265158
209	0xfd	-0.030795474
210	0x01	0.010265158
211	0x04	0.04106063
212	0xfc	-0.04106063
213	0xfd	-0.030795474
214	0x04	0.04106063
215	0xff	-0.010265158
216	0xfc	-0.04106063
217	0x00	0.0
218	0xfd	-0.030795474
219	0xfc	-0.04106063
220	0xfe	-0.020530315
221	0x04	0.04106063
222	0x04	0.04106063
223	0xfe	-0.020530315
224	0xfc	-0.04106063
225	0x02	0.020530315
226	0xff	-0.010265158
227	0xfd	-0.030795474
228	0x03	0.030795474
229	0x01	0.010265158
230	0x00	0.0
231	0x03	0.030795474
232	0xfd	-0.030795474
233	0x03	0.030795474
234	0xfe	-0.020530315
235	0x02	0.020530315
236	0xfd	-0.030795474
237	0xfe	-0.020530315
238	0xfd	-0.030795474
239	0x01	0.010265158
240	0x01	0.010265158
241	0xfd	-0.030795474
242	0xfe	-0.020530315
243	0xfe	-0.020530315
244	0x03	0.030795474
245	0x03	0.030795474
246	0x01	0.010265158
247	0x03	0.030795474
248	0xff	-0.010265158
249	0xfd	-0.030795474
250	0x03	0.030795474
251	0x01	0.010265158
252	0x00	0.0
253	0x03	0.030795474
254	0x01	0.010265158
255	0x04	0.04106063
