model/point_history_classifier/point_history_classifier.tflite (tflite, 6652 bytes, 6 tensors)

sequential/dense/BiasAdd/ReadVariableOp f4 [24]
000000 e3 67 0d bd ae af 45 3e ba 2f eb 3d 58 6b 64 3e
       -0.034522902 0.19305298 0.114837125 0.22306573
000010 c2 10 33 3e a9 1a 5a 3e 8e 5d 28 3e 4b 53 06 bc
       0.17486861 0.21299233 0.16441938 -0.0081985695
000020 9a 6a 80 3e aa 60 02 3e 64 b7 2d 3e 9e 30 b3 bc
       0.2508133 0.12732187 0.16964489 -0.021873768
000030 b5 8f 72 3e e2 b6 81 3e 98 f6 26 bc a5 82 1c 3e
       0.23687632 0.2533484 -0.0101906285 0.15284212
000040 cb ca 35 3e 79 53 0e 3d 36 09 cf 3d b1 60 65 3e
       0.1775314 0.034747574 0.10109179 0.22400166
000050 24 a3 fa 3c ce bd 3d 3b d8 f7 85 3b e6 64 3b 3c
       0.03059537 0.0028952244 0.004088383 0.01143763

sequential/dense_2/BiasAdd/ReadVariableOp f4 [9]
000000 8d c1 e4 3e ca 00 e0 3d 3f f8 83 be e3 f4 e8 3d
       0.44678918 0.109376505 -0.25775334 0.113748334
000010 9e 7a 2c 3e fb 7e d1 be 4d 78 76 be 58 df 22 bc
       0.1684365 -0.4091719 -0.24069329 -0.009940945
000020 ef dc 27 3c
       0.010245546

sequential/dense_1/BiasAdd/ReadVariableOp f4 [10]
000000 ec b1 0f 3f f3 56 92 3e ba 52 8e 3e 90 10 ea 3e
       0.5613086 0.28581962 0.2779749 0.4571576
000010 12 51 d4 ba de db a0 3e 5f 72 eb 3e 44 af 1f 3e
       -0.0016198477 0.31417745 0.45985696 0.15594202
000020 3d c6 11 3f 85 bb 54 bd
       0.5694311 -0.051936645

sequential/dense/MatMul f4 [24, 32]
000000 76 9b 95 be 88 6d 1a be f1 0f 47 3f 94 e1 9f 3d
       -0.2922017 -0.15080845 0.777587 0.078066975
000010 5b 81 a3 3e b0 71 83 bd 1f 24 af 3e e5 da 3e 3d
       0.31934628 -0.064181685 0.34207246 0.046595473
000020 d0 29 11 3f 94 13 38 3e cb 90 9e 3e c2 95 b5 3e
       0.56704426 0.17976218 0.30969843 0.3546582
000030 9c 33 5e 3f 28 e6 f1 3e 26 24 0d 3f 03 39 88 3e
       0.867975 0.47245908 0.55133283 0.26605996
000040 df 9c 35 3f 43 88 c3 3e a7 89 33 3f 94 a8 df 3e
       0.7094249 0.38189897 0.70131916 0.43683302
000050 8a 55 d2 3e 99 20 a9 3e 67 d7 cd 3e 0e ee 07 3f
       0.41080886 0.33032683 0.402034 0.5309762
000060 4c 16 43 3f ce 0f ab 3e 8b 7c 62 3f c4 45 4c 3e
       0.762059 0.33410496 0.8847129 0.19948488
000070 fc a4 3d 3f 65 2a 7e 3e c0 22 6b 3f dd 4e 05 3f
       0.7407987 0.2482086 0.918499 0.5207346
000080 c4 8a 56 3e c4 e2 79 3e 67 7a dd be ed 93 9b 3e
       0.20951372 0.2440291 -0.43257448 0.30386296
000090 e7 29 7b bf f5 64 b8 bd f5 4e 85 be 26 d2 40 3e
       -0.9811081 -0.09003631 -0.26036802 0.18830165
0000a0 f1 60 49 bf 11 eb fe 3d b4 67 bb be f9 ae 70 3d
       -0.78663546 0.12447179 -0.36602557 0.058760617
0000b0 07 aa 68 bf ef ec 93 3e 50 cd 6f bf dc f6 ae 3e
       -0.9088444 0.28891703 -0.93672657 0.34172714
0000c0 cd 0d 0d bf eb c6 96 3e 84 54 09 bf 2b 1c 23 3e
       -0.55099183 0.29448637 -0.53644586 0.15928714
0000d0 64 9e 5c bf 6c 9b dc 3e 2c 38 fe be a7 3e 94 ba
       -0.86179185 0.43087327 -0.4965223 -0.0011310176
0000e0 56 66 19 bf 77 89 83 3e f0 42 bb be ab 86 1a 3e
       -0.5992178 0.25690815 -0.36574507 0.15090434
0000f0 64 05 53 bf d8 97 f1 3c dd 9a e2 be 52 e0 be bb
       -0.824301 0.02949135 -0.44258776 -0.005825081
000100 e8 4e 58 be f2 dd 93 be 2d 60 d8 3e 32 c1 f8 be
       -0.2112385 -0.28880268 0.42260876 -0.48584896
000110 9f 69 6d 3e ef 80 bf be a7 d2 fc 3d 6e db ec be
       0.23184822 -0.37403056 0.12344866 -0.46261162
000120 6b 72 4b 3e e1 77 42 be 29 f1 f5 3d 27 88 03 bf
       0.19867866 -0.18991043 0.12008888 -0.51379627
000130 86 3b 94 3d 50 ef 93 be da 1c 55 3e 6b 3d 05 bf
       0.07237916 -0.28893518 0.20811787 -0.5204684
000140 36 2a 23 3e d7 75 8a be 7a d3 d6 3d 51 2c 34 bf
       0.15934071 -0.2704303 0.10489555 -0.7038012
000150 0c 61 7b 3e 9f c7 d4 be 4b 54 a7 3e 61 82 21 bf
       0.24548739 -0.4155855 0.32681498 -0.6308957
000160 8b 2f 6e 3e 41 fe 87 be d4 0c 6f 3e 87 53 26 bf
       0.23260324 -0.26561168 0.23344737 -0.649712
000170 94 89 a1 3e 73 c1 32 bf ea f5 bd 3e f0 38 21 bf
       0.31550276 -0.6982643 0.3710168 -0.62977505
000180 70 b0 53 3e 54 ea d3 3d 8b 25 68 3f dc 15 69 bc
       0.20672774 0.10347429 0.90682286 -0.014226403
000190 81 0b 2c 3f 82 cc 79 3e f3 53 35 3f 24 ec ec bd
       0.67205054 0.2439442 0.7083122 -0.11568478
0001a0 92 e3 2e 3f 1d 17 b0 be 75 f0 45 3f 90 06 1c be
       0.68315995 -0.34392634 0.77320033 -0.15236878
0001b0 88 d4 e7 3e d5 7b 29 be db 35 78 3e d9 42 26 3e
       0.45279336 -0.16551144 0.24239294 0.16236438
0001c0 fb e7 0c 3f f2 cf 65 bd 2f c1 53 3f 35 e4 f3 3d
       0.55041474 -0.056106515 0.8271665 0.119087614
0001d0 08 95 31 3f 92 af 09 bd 38 ba 82 3e 2c 5f e1 3d
       0.6936803 -0.033614703 0.255327 0.11004481
0001e0 a7 fb bb 3e ac 65 d1 3d 94 9e ea 3e be 9f 21 3d
       0.36715433 0.102244705 0.4582411 0.039458983
0001f0 90 a2 e3 3e 4e a0 ee be 9b 93 0c 3f a9 0d 94 be
       0.44459963 -0.46606678 0.5491273 -0.28916672
000200 40 3a fd 3c 18 a4 f3 3d df 41 12 3f b3 13 d3 3e
       0.030911565 0.11896533 0.5713176 0.41225967
000210 45 64 b6 3e e1 d4 c3 3e 31 5b 48 3f 6b 3c dc 3e
       0.35623375 0.3824835 0.7826415 0.43014845
000220 27 5a 17 3f d6 3f 8d 3e 41 36 67 3e 06 d0 97 bd
       0.59121937 0.27587765 0.2257929 -0.07412724
000230 c5 8a a5 3e da b1 82 3d 13 10 fe 3e 5a d1 17 3e
       0.32332435 0.06381579 0.4962164 0.14825955
000240 d8 da b4 3e 8c 08 68 be 6a 92 1a 3f 8a 07 33 3e
       0.35323215 -0.2265951 0.6037966 0.17483345
000250 12 51 25 3f 78 cc c7 be d4 3f f0 3e 14 b8 87 be
       0.6457683 -0.39023185 0.46923697 -0.26507628
000260 45 ed 38 3f 03 05 94 bd be 57 0a 3f ca ab cf be
       0.72237045 -0.072275184 0.54040134 -0.40560752
000270 74 d8 67 3e 94 41 e3 bd 38 d8 ae 3e 58 d1 b5 be
       0.22641164 -0.110964924 0.34149337 -0.3551128
000280 9a ca a6 bd 90 b6 49 3e 9f 9f 32 3f a7 6e 3d 3e
       -0.08144112 0.19698548 0.6977481 0.18499242
000290 34 7a 08 3f 11 36 d4 3d 84 c3 b5 3e 69 1c a0 3d
       0.5331147 0.10361875 0.3550073 0.07817919
0002a0 ae 50 fd 3e cc 16 a9 be 29 44 26 3e ba 93 b9 be
       0.49475616 -0.33025205 0.16236939 -0.3624552
0002b0 5d fd 39 3f 00 79 f4 3d d7 86 cb 3e b2 85 b7 be
       0.72652227 0.119371414 0.39751312 -0.3584419
0002c0 bf 26 45 3f 8f f3 c0 be e4 67 b5 3e 7b b8 79 be
       0.77012247 -0.3768582 0.35430825 -0.2438678
0002d0 18 cb 8d 3e 30 18 7d 3a 21 0a 0f 3f 57 79 20 3e
       0.2769401 0.00096547883 0.5587483 0.15671287
0002e0 74 62 3e 3f 86 75 2f 3d 2b 89 3b 3f 12 a7 09 be
       0.7436898 0.04283669 0.73256177 -0.13442639
0002f0 a1 88 3d 3f a2 e8 1e bd 27 4f 0e 3f 57 1f e1 3c
       0.74036604 -0.038796075 0.55589527 0.027480764
000300 28 3e 00 3d 30 c0 10 3d 38 0c 84 be 23 76 c3 3e
       0.031309277 0.035339534 -0.25790572 0.3817607
000310 fe 08 1e bf bb 30 c4 3e 37 1e bb be a9 15 ab 3e
       -0.6173247 0.38318428 -0.3654649 0.33414963
000320 08 37 32 be 54 85 42 3e 97 f2 97 bd 3b cf fd 3e
       -0.17403805 0.18996173 -0.07419317 0.49572167
000330 50 08 cc be 79 c1 86 3e ff 13 8d be d5 ef ac 3e
       -0.39850092 0.26319483 -0.27554318 0.33776727
000340 bf fe c2 be bd 71 0a 3e ed 28 b6 be 42 43 2f 3f
       -0.3808498 0.1351995 -0.355781 0.68462
000350 b2 ad 0e be c9 fc 35 3f 46 7d e1 be 89 8c 0f 3f
       -0.13933447 0.71088845 -0.4404089 0.56073815
000360 74 26 3a be 7d 40 a6 3e be 5b 77 be 30 53 fd 3e
       -0.18178731 0.32471076 -0.2415609 0.4947753
000370 36 2c ab be 79 11 17 3f 6e 2e 6b be 1d c0 04 3f
       -0.33432168 0.59011036 -0.2296693 0.5185564
000380 da 01 8b 3e be 6a d2 bd c1 72 18 be 93 64 c4 3e
       0.2714985 -0.10274266 -0.14887525 0.38357982
000390 98 53 f4 3e e1 73 ca 3e 58 cc 96 3e 01 1a b3 3c
       0.47720027 0.39541534 0.29452777 0.021862986
0003a0 25 b3 bd 3e 03 85 5e 3e 80 e0 d0 3e 3f 53 4d 3e
       0.3705074 0.21730427 0.4079628 0.20051287
0003b0 59 93 a9 3e 93 ee 9b 3d 8a 4a 3d 3e 1d 94 ef 3e
       0.3312023 0.07613864 0.18485466 0.4679269
0003c0 9e 50 02 3f aa 3a 18 3f 07 d4 f4 3e 96 16 bf 3e
       0.5090426 0.59464514 0.47818014 0.3732192
0003d0 ae 68 c8 3e 2f e4 2b 3f 73 39 e3 3e 8d 00 f4 3e
       0.39142364 0.67145056 0.44379768 0.4765667
0003e0 d0 d0 80 3e fa d4 2f 3f 84 b5 e0 3d 61 91 b6 3e
       0.2515931 0.6868435 0.10972121 0.3565779
0003f0 20 12 f6 3e 92 79 b0 3e d7 5b b3 3e 36 90 f5 3e
       0.48060703 0.3446775 0.35031006 0.47961587

sequential/dense_1/MatMul f4 [10, 24]
000000 39 1c da bd c7 a2 c7 3e c3 3d 45 3f 0a bd e1 3e
       -0.10649914 0.38991377 0.77047366 0.44089538
000010 65 07 31 3f 0c 0f 5b 3e 26 c2 0e 3d ed dc 28 bf
       0.6915191 0.21392459 0.034853123 -0.65962106
000020 26 fc 0c 3d 18 17 79 bd 20 2a 61 3f 38 b5 cc 3e
       0.034420155 -0.06081304 0.879549 0.3998201
000030 06 f4 58 3f 53 d2 5d 3f 6e 44 b5 be 2c 7e fa bd
       0.8474735 0.86649054 -0.3540377 -0.122310966
000040 ca 02 fe bd f4 4e 19 bf 6a 2f b8 3e 9d 7a f9 bc
       -0.12402876 -0.598861 0.35973674 -0.030453974
000050 1b 1d 19 3e be d8 8c be 8d b5 5a 3e f5 ac c3 bd
       0.14952509 -0.2750911 0.21358319 -0.09554473
000060 4f 93 01 3f c2 ef 4c 3f db ae ec bd b8 06 2d 3e
       0.506154 0.8005334 -0.115567885 0.16897094
000070 c3 0b 43 be 5e cd 60 3d 66 9c 59 3f f0 c0 f9 3e
       -0.19047455 0.054883353 0.8500427 0.48780012
000080 ec 73 39 3f 4f 17 57 3f 96 27 98 be 37 19 77 bf
       0.7244251 0.8401994 -0.29717702 -0.9652285
000090 96 de 09 bd 9e 0d fe 3d ca a3 06 3f b0 32 38 3f
       -0.03365954 0.12404941 0.5259367 0.71952343
0000a0 f1 42 b5 3e 77 24 5a 3e 11 7f af be f7 74 9c 3e
       0.35402635 0.21302973 -0.3427663 0.30557987
0000b0 61 f1 fe 3d ee 4d 09 be 24 33 4c bf 41 4f 58 bf
       0.12448383 -0.13408634 -0.79765534 -0.8449593
0000c0 02 59 ff 3e b0 e1 e0 3e 15 13 1c be 0d 3a 42 bd
       0.49872595 0.43922186 -0.15241654 -0.047418643
0000d0 f8 ed 24 3e 5b 8c c3 bd a8 e5 f1 3e 93 b4 fe 3e
       0.16106403 -0.09548255 0.47245526 0.49747142
0000e0 44 22 6c 3f ff b0 da 3e 32 7a 87 3b d1 29 73 3e
       0.92239785 0.42713162 0.00413444 0.2374642
0000f0 4e af 84 bc e8 92 d3 bd 4a 71 54 3f fc 26 da 3e
       -0.016196873 -0.103307545 0.82985365 0.42607868
000100 99 fd 89 3f 27 16 39 3f d9 bc 95 be 24 ef 6e 3f
       1.0780517 0.72299427 -0.29245642 0.9333365
000110 97 59 2e 3f a0 41 34 3f 60 ab d7 3d d5 4d 24 3e
       0.68105453 0.70412636 0.10530734 0.16045316
000120 55 03 8c bf c9 50 25 3f 21 ae b7 be cb 39 f1 be
       -1.0938517 0.64576393 -0.35875037 -0.47114405
000130 19 b6 6e bd e5 2b a1 be 55 ae 1a 3f aa 54 e7 be
       -0.05827913 -0.314788 0.6042226 -0.4518178
000140 ae 48 29 3f b2 bd 15 3f a8 7e 73 3e 60 b4 8e be
       0.66126525 0.5849258 0.23778784 -0.2787199
000150 e2 da f5 3c 2b 02 22 be 3e 96 7a bf ce d3 8c 3e
       0.030011598 -0.1582114 -0.978855 0.27505344
000160 5e 9b 20 3f 9b 91 20 3d b9 38 52 be 18 c8 b5 3e
       0.6273707 0.03920136 -0.2052945 0.35504222
000170 30 71 29 bf 19 46 eb 3e 0d 12 a6 3e a3 c6 0f 3f
       -0.66188335 0.45951918 0.32435647 0.5616247
000180 ec 21 ee 3e b8 6f ca 3d f1 10 6a 3f 7c f0 32 3d
       0.46510255 0.0988459 0.914321 0.043686375
000190 6d 1f ba 3e b7 c9 de 3d 01 b3 75 bf 53 51 87 3e
       0.363521 0.10878318 -0.95976263 0.26429233
0001a0 0c 29 bb be ee 3b b7 be 25 72 3d 3f e2 b4 16 3f
       -0.36554754 -0.3578791 0.74002296 0.58869755
0001b0 d2 84 31 3f 31 be 28 3f 40 fe 2d 3f 80 47 78 bf
       0.6934329 0.6591521 0.6796608 -0.969841
0001c0 4e 79 8a be 4b a2 35 bd 22 dc 07 3f 2c 9b 06 bf
       -0.27045673 -0.044344228 0.5307027 -0.52580523
0001d0 45 31 b2 3e 09 64 cd 3d 27 00 3e 3f 7c c2 26 3d
       0.34803215 0.10028846 0.7421898 0.04071282
0001e0 b3 f3 e5 be bc 06 5b 3f b2 a4 5b be 7f 4c 49 bf
       -0.4491249 0.8555715 -0.21449545 -0.7863235
0001f0 da 6e 62 bf 56 48 57 bf cd 69 b6 3e 99 25 22 bf
       -0.88450396 -0.8409475 0.35627595 -0.6333862
000200 32 d3 26 bd 7a aa 41 3e c6 4e d6 3d 4c f1 29 3f
       -0.040728755 0.18912688 0.104642436 0.66383815
000210 2d eb 9f 3d 69 26 cf 3d 33 75 28 be 23 7d fe 3e
       0.07808528 0.10114748 -0.16450958 0.49704847
000220 d9 7e bf bd 34 0d 18 bf 08 42 07 bf 92 97 60 bd
       -0.09350366 -0.59395146 -0.5283513 -0.05483205
000230 e3 47 84 3d fb 33 50 3f a7 26 4e 3f ee 69 5c 3f
       0.06459024 0.81329316 0.8052773 0.86099136
000240 cb 04 34 bf 32 35 c6 3e c7 e2 33 3f db 9a ff 3c
       -0.70319813 0.3871246 0.7026791 0.03120177
000250 8d 62 88 bd 6b 5c 0d be 70 c4 45 bf e7 5c 21 bf
       -0.06659422 -0.13804786 -0.77252865 -0.6303238
000260 08 3b 5a bf 4d 47 54 bf 26 d7 08 3f 96 5b 1a 3f
       -0.85246325 -0.82921296 0.5345329 0.60296
000270 e1 f1 0e 3f 43 35 ce 3e 9f d4 47 bf ea ff 7e bf
       0.5583783 0.4027501 -0.7805881 -0.99609244
000280 04 3e 62 bf da 38 db bd 9b 40 34 bd eb 14 1a bf
       -0.8837588 -0.10704203 -0.044006925 -0.6018817
000290 bb f2 35 bf 39 28 36 be 71 02 5d 3e eb a5 11 3f
       -0.710735 -0.17788781 0.21582963 0.56893796
0002a0 86 d7 d3 3e 95 fc 30 bf 91 98 ab 3e 96 41 68 3f
       0.4137537 -0.6913541 0.33514836 0.90725076
0002b0 b4 56 4b 3f eb 43 50 3f 47 f1 6a 3d b6 68 e9 3e
       0.79429173 0.81353635 0.057359006 0.455877
0002c0 c2 70 e2 3e 15 36 38 bc e5 84 4c be c4 98 44 3b
       0.44226652 -0.011243363 -0.1997257 0.0029998282
0002d0 c0 e2 9f 3d 54 43 e4 3e e0 d3 49 3f 25 e1 b3 bd
       0.07806921 0.44582617 0.7883892 -0.08783177
0002e0 02 5d 7d 3e bf 70 33 3f d2 9d 43 3f e1 43 4e 3e
       0.24742511 0.7009391 0.7641269 0.20143081
0002f0 76 6b 67 3f 6c 98 9b be 78 50 fe be 27 6b 40 bf
       0.9039835 -0.30389726 -0.49670768 -0.751635
000300 4b 73 54 bf 51 d1 35 3e 72 1d 58 3f 84 2b fc 3e
       -0.82988423 0.17755629 0.8441993 0.4925195
000310 bc 17 1b 3f 7b 62 8b 3e 06 da 7b be c3 5e 58 bf
       0.6058309 0.27223572 -0.24594888 -0.84519595
000320 90 fb e3 bc 29 a2 6f be 7e 2c 29 3e de d2 7f be
       -0.027829915 -0.23401703 0.16520879 -0.24982783
000330 49 58 47 3f 84 19 2d 3f 61 05 dd be dd 08 3e be
       0.7786909 0.6761706 -0.43168166 -0.18558069
000340 a3 6a a3 be 15 50 8b be c1 f7 26 3f d0 78 2d bd
       -0.31917295 -0.27209535 0.6522179 -0.042351544
000350 8d e2 33 be dc 0e 42 bf 2b d4 e7 bd f5 83 14 be
       -0.17566891 -0.75803924 -0.11319765 -0.14503463
000360 8a 27 41 be cb 05 eb 3e c9 9b 8b be 6b 44 8b be
       -0.18862739 0.45902857 -0.27267292 -0.27200636
000370 68 bd 5e bd 86 b2 e8 be e2 36 c8 3e 3b e7 bc 3e
       -0.05437985 -0.45448703 0.39104372 0.36895165
000380 29 91 a5 3e 45 d4 09 3f 0c a5 4a bf 4b 20 69 bf
       0.3233731 0.5383952 -0.7915809 -0.910649
000390 cf 3d 82 bf 07 b8 4b bf 6e 1d 0b be 59 ba ca 3e
       -1.0175112 -0.7957768 -0.13585445 0.39595297
0003a0 62 85 c8 3e f1 0e 2e 3f 2b 18 43 be 38 c5 e7 3e
       0.39164263 0.6799155 -0.19052188 0.45267653
0003b0 79 b0 4e be f2 c5 04 3f c6 89 e5 bc d0 a0 fc bd
       -0.20184506 0.5186454 -0.028019797 -0.1233536

sequential/dense_2/MatMul f4 [9, 10]
000000 c1 81 f7 3e 6a 07 16 3f c0 6d 33 3d a6 13 ea 3e
       0.48341182 0.5860506 0.043805838 0.45718116
000010 5f f1 9e bf 30 83 a2 bf e4 62 2c bf 83 dd 29 bf
       -1.2417411 -1.2696285 -0.67338395 -0.66353625
000020 62 64 88 3f 16 d2 8c bf 22 6f 4b 3e 11 0e 82 bf
       1.0655634 -1.1001613 0.19866613 -1.0160543
000030 d9 17 91 bf eb dd 86 bf 9f 1d 60 3e b1 eb 3a bf
       -1.1335403 -1.0536474 0.218863 -0.73015887
000040 39 3f 67 3f 95 0b ad be b5 3e c7 3e ae d4 c0 3b
       0.90330845 -0.337979 0.3891503 0.0058847284
000050 ce 0a 6d bf 68 90 5c 3f 49 98 c2 3e d7 c3 c5 be
       -0.9259461 0.86157846 0.3800681 -0.38625976
000060 7c 80 6e be 2a 4c 03 bf 9d ce 97 be 30 46 fb bc
       -0.232912 -0.5128809 -0.2964982 -0.030673116
000070 ea 55 06 bf d6 45 48 3f 99 fe 58 be a1 92 ad be
       -0.52474844 0.7823156 -0.21190871 -0.3390093
000080 b4 77 6e bd 3c 8c 39 bf 38 fd 78 3d f1 37 2c be
       -0.058219627 -0.72479606 0.060788363 -0.16818215
000090 09 29 58 bf 33 b5 4f 3f f9 5b 33 3e 37 49 a3 be
       -0.84437615 0.81135863 0.17515554 -0.31891796
0000a0 c2 f8 74 bd a9 ae b4 be 65 26 18 3f 47 e0 00 3f
       -0.059807546 -0.35289505 0.59433585 0.5034222
0000b0 f1 35 58 be 41 ce 83 3f 75 74 1d bf 3c f1 58 bf
       -0.21114327 1.0297319 -0.61505824 -0.84743094
0000c0 19 4e 1f bf e8 48 7d bf 8e 3e 09 be 93 6f 08 bf
       -0.6222854 -0.9893937 -0.13402769 -0.5329525
0000d0 e4 e9 66 bf 9d 2a e7 be 05 b3 13 3f 88 15 0d bf
       -0.9020064 -0.451497 0.5769504 -0.5511098
0000e0 c8 9d f4 3d 19 b0 64 3e b3 99 38 3f 15 6b f4 3d
       0.11944157 0.22332801 0.72109526 0.11934487
0000f0 65 c7 66 bf 7e b9 1f 3f 38 2e 0b 3f fa 3e 0f bf
       -0.90148 0.62392414 0.543674 -0.5595547
000100 6c ae 9a bf 4d e0 4a bf 8a a7 22 bf 2c 6b dd 3e
       -1.2084479 -0.79248506 -0.63536894 0.43245828
000110 f3 e1 25 bf 32 6b ce bd 67 3b a1 bf 2d 80 84 3d
       -0.64797896 -0.1007904 -1.2596253 0.0646976
000120 d2 5a 05 3e fc 6b 77 3f 3e 2c 34 be 30 ce c7 3c
       0.13022926 0.96649146 -0.17595002 0.02439031
000130 a7 61 c2 bd 05 cf 2c bf 0f 6a 20 be 8e 9f 6a 3f
       -0.09491282 -0.67503387 -0.15665458 0.9164971
000140 84 db c7 be 7a e4 0e 3d 0b d8 df be be 32 3b bf
       -0.39034665 0.03488586 -0.43719515 -0.731243
000150 17 e6 11 3f 6e bd 81 3f 49 d5 7e 3f 0c e1 9e bf
       0.56991714 1.0135934 0.995442 -1.2412429
000160 b8 6b 8d 3e 0c 96 b5 be
       0.27621245 -0.3546604
